model_ADAUSDT.pth (torch, 41918 bytes, 33 tensors)

model.lstm.weight_ih_l0 f4 [40, 3]
000000 17 62 71 be 08 89 08 3d df a4 cc 3c e5 d4 00 be
       -0.23572575 0.03333381 0.02498096 -0.12581213
000010 6f 60 b0 bd a4 2e 10 be 45 75 e0 3d d5 bd c0 bb
       -0.08612143 -0.14080292 0.109598674 -0.0058820047
000020 a1 e7 13 be fc 17 f8 3a 81 4c 78 3c 04 ae 1c bd
       -0.14443828 0.0018928046 0.015154959 -0.03825189
000030 5e 01 97 be cb 0d d2 bc a8 5a 09 3d c7 71 0a be
       -0.2949323 -0.025641343 0.033533722 -0.13519965
000040 ea a5 0c bd 9d 07 84 3c fc 08 02 3e 08 04 b9 bd
       -0.034337915 0.016116912 0.1269874 -0.09033972
000050 ae 03 f0 3d b9 c8 23 be aa 9f e5 3d 64 1a 0d 3e
       0.11719452 -0.15994538 0.11212094 0.13779598
000060 ce 13 4b be f3 e8 d5 3c 3e 0c 86 3d 0b 4b 81 3e
       -0.19831774 0.026112055 0.06545304 0.25252566
000070 c6 23 b1 bd c5 a4 9f 3d fe a2 5d be bd 37 ac bd
       -0.08649401 0.07795099 -0.21644208 -0.08409069
000080 34 e8 17 be 74 6d 29 be 8c d6 41 3d b6 3a 95 3d
       -0.14834672 -0.1654566 0.04732375 0.07286589
000090 c2 04 cc 3d 7c 94 53 3c e4 1e 7e 3c 30 82 09 bd
       0.09961845 0.012913819 0.015510295 -0.033571422
0000a0 9d 88 a2 bc 36 d9 08 3d 5a f9 9b be 20 4c dd 3d
       -0.019840533 0.033410273 -0.30463678 0.10805535
0000b0 70 5c dc 3c c3 b7 65 be 29 91 d4 3c 73 04 87 3d
       0.026899546 -0.22433381 0.025948124 0.065926455
0000c0 b9 ab 98 3e 68 92 94 3c 99 05 cd 3c 6f 54 8e be
       0.29818514 0.018136218 0.025027083 -0.27798793
0000d0 3e 6c 54 3d 45 fc d3 3d 7d d4 11 3e a8 9e 12 3e
       0.05186104 0.10350851 0.14241214 0.14318335
0000e0 4f a7 21 be 93 ec 4b 3e 98 73 36 be 05 34 3b 3d
       -0.1578648 0.19914465 -0.17817533 0.045703907
0000f0 79 15 9c 3d 14 15 d5 bd db a9 cf bd ca b9 b1 bd
       0.07621283 -0.10404411 -0.10139819 -0.086780146
000100 da 04 1d 3e 8e 10 ce bd ae d2 82 be 80 37 b2 bd
       0.15333882 -0.10061751 -0.2555136 -0.08701992
000110 03 79 5d 3d 70 ae 88 3d 2e 34 08 be b6 15 ca 3c
       0.054070484 0.06673896 -0.13301155 0.024668556
000120 64 e0 9b 3d 0e 27 bf 3d 03 a4 95 bd bf 77 37 be
       0.076111585 0.09333621 -0.073066734 -0.17916773
000130 1c 45 c0 3d 1d ca 9d bd 3c 2f 29 be 4c e8 97 bd
       0.093881816 -0.07704566 -0.16521925 -0.07417354
000140 38 6d c2 3d 76 d5 08 3e 82 42 f9 ba 9d e6 12 bd
       0.09493488 0.13362679 -0.0019017013 -0.03586446
000150 11 1f 49 3e af b6 00 3c 0a b3 06 3c e1 d3 7a be
       0.19640757 0.007856055 0.008221397 -0.24494888
000160 7f af ff bd 5d 75 56 3d 28 95 5f be 09 70 f9 3d
       -0.12484645 0.05235802 -0.21834242 0.12179572
000170 06 d5 aa bc 94 6b d0 bd 8c 5b 30 3e 43 ee c3 3d
       -0.02085353 -0.10176769 0.17222422 0.09566929
000180 b3 48 62 3e b2 72 ab 39 cb 38 1d be d9 71 1d 3e
       0.22098045 0.00032701116 -0.15353696 0.1537546
000190 0a 8b 47 be 9d 50 22 3e 7c f0 7f be 34 7a fc 3d
       -0.19486633 0.15851064 -0.24994081 0.12327996
0001a0 7e cf bd bb 1e 18 ba bd e4 ae 6e 3c ea 3d b0 bd
       -0.0057925573 -0.09086631 0.014568064 -0.08605559
0001b0 12 27 8b 3d 8a b8 2f be 26 6a 1a bd d5 f6 21 bd
       0.067945614 -0.1716024 -0.037698887 -0.039542038
0001c0 5b 15 08 3e 54 a2 34 be a7 1e db bd 03 3f 38 3e
       0.13289396 -0.17640048 -0.10699206 0.17992787
0001d0 72 8b b5 bd 06 9a 88 3c 96 1b 94 3d 03 9d b0 3d
       -0.08864488 0.016675007 0.07231824 0.086236976

model.lstm.weight_hh_l0 f4 [40, 10]
000000 e1 12 22 be 03 53 23 bd 24 81 11 be 47 c1 ca ba
       -0.15827514 -0.039874088 -0.1420942 -0.0015468978
000010 ea 1d 6e 3d c6 fa cf bd e9 42 e5 bb 52 7e a0 3d
       0.058133997 -0.10155253 -0.0069965017 0.07836594
000020 e4 1c 9e 3d 56 70 34 3e 9a f5 90 3d 78 32 c1 bc
       0.07720354 0.17620978 0.07078095 -0.023583636
000030 c3 d8 94 3d c0 c0 ef 3d 59 18 27 be ec 2a 3b 3e
       0.072679065 0.11706686 -0.16317882 0.18278092
000040 d1 fb 42 bd 5f 5b 81 be 22 f8 55 be c1 19 32 bd
       -0.047603432 -0.25265023 -0.20895436 -0.043481592
000050 e7 98 5d be c2 89 4e 3e 14 d3 f0 bd 43 c8 a0 bc
       -0.21640359 0.20169738 -0.1175901 -0.019626742
000060 b6 d0 97 3d de 0c 04 bc e8 f2 fb 3d 31 cd 46 be
       0.07412855 -0.008059708 0.1230219 -0.19414212
000070 e0 bb a2 bc 93 ad 1d be 10 a7 0e 3e ab ab 71 3d
       -0.019864976 -0.15398245 0.13930917 0.059001606
000080 c3 8b bc 3d 85 ce 9d bd a2 c3 7f bd 1b 3e 1d 3d
       0.09206345 -0.07705406 -0.06244243 0.038389307
000090 87 8f 3d 3d 2b 78 8e 3d 92 1a 73 bd d1 b8 c7 3d
       0.046279456 0.06956514 -0.05935151 0.09752048
0000a0 73 78 e2 bd 0d 4c 57 3e 8e 4c da bd a5 43 0f 3e
       -0.1105813 0.21025105 -0.10659133 0.13990648
0000b0 86 0f 12 3e 28 74 90 bd f6 f9 f1 3d 38 f9 51 3c
       0.14263734 -0.07053405 0.118152544 0.012815766
0000c0 74 71 ab bd bc 25 6f 3b 09 17 be 3d d0 cb 66 3e
       -0.08371249 0.0036490997 0.09281737 0.22538686
0000d0 ae f7 b8 bd 6e 8a 95 3e 98 17 b0 3c 6a 8a ec 3d
       -0.09031616 0.29207176 0.021495625 0.11549838
0000e0 35 e4 d8 bd 43 3d 2a 3d c8 b8 12 be ce 0f d0 bd
       -0.10590402 0.04156233 -0.14328301 -0.101592645
0000f0 f2 a7 01 bd b3 6b 38 3e 9a f8 74 3c fe bb 27 3e
       -0.031654306 0.18009834 0.014951849 0.16380307
000100 db be c5 bd 55 98 84 bd 21 9f 31 be c7 03 94 3d
       -0.096555434 -0.064743675 -0.17345859 0.07227283
000110 6e 2b 3e 3e 46 31 62 be 96 ae 2a bd 19 a9 cd bd
       0.18571255 -0.22089109 -0.041670404 -0.100420184
000120 38 d7 04 be de 4c c5 3d e7 67 d8 3d 3a 4b f5 3d
       -0.12972724 0.09633802 0.10566693 0.11977239
000130 8b 20 d4 3d ed 37 50 bc 27 1d 5d be 04 c0 89 bd
       0.103577696 -0.012708646 -0.21593152 -0.06726077
000140 03 0e 48 be 9e cd 17 3e ec 62 77 be 55 18 01 be
       -0.19536595 0.1482453 -0.2415883 -0.12606938
000150 ee 06 8e 3d 00 85 de 3d e3 8e a9 bd 66 37 6b be
       0.069349155 0.108652115 -0.082792066 -0.22970352
000160 a5 19 2a be 53 cc c2 bd 9c 0e 26 be df 97 c1 bc
       -0.16611345 -0.09511628 -0.1621651 -0.023631988
000170 ff a3 01 be f9 95 83 bd 32 ca 65 bd 4b a9 36 bd
       -0.12660216 -0.064250894 -0.05610103 -0.044595044
000180 d7 78 28 be e4 f1 c1 bd b1 4b 6d 3d 88 1c e5 bb
       -0.16452347 -0.09469965 0.057933513 -0.0069919266
000190 1d 99 81 3d b7 29 e3 bd 08 30 5e 3e fe 9c e0 3d
       0.06328032 -0.11091941 0.2169801 0.10967444
0001a0 1d 5f b0 bd 5c 42 eb 3d d2 d2 05 be dc 75 be 3d
       -0.086118914 0.114872664 -0.13068703 0.09299824
0001b0 42 88 d2 bd aa 5a e7 bc a6 cf 49 be 89 20 65 bd
       -0.10279895 -0.028241474 -0.19708118 -0.05593923
0001c0 72 d5 9d bc 55 45 8a 3d 50 4d 28 be 1f 38 1c 3e
       -0.019266818 0.06751505 -0.16435742 0.15255783
0001d0 a3 7b 25 3d 77 6b 83 be bc 66 b7 3c 4a b7 a5 3d
       0.040401112 -0.25667927 0.022387855 0.080916
0001e0 91 ea 4f 3d 8a e9 1b be 3e b7 f6 bc 44 3f f3 3d
       0.05076081 -0.15225807 -0.030116674 0.11877301
0001f0 6b 50 b2 bd 58 04 1d 3e 57 0b 26 be c2 df b7 3c
       -0.08706745 0.15333688 -0.16215263 0.022445563
000200 aa 74 50 3e 1c 7c 12 be aa f1 6a 3d 5c e5 a2 3d
       0.20357004 -0.14305156 0.057359375 0.07953903
000210 43 13 36 be aa 6b 25 3e 16 19 e4 3d 2b 02 67 bd
       -0.17780785 0.16154352 0.11137597 -0.056398552
000220 23 0f cf 3d 7f af 4f bc b4 ba 01 3d 14 a7 9c 3d
       0.10110309 -0.012676119 0.031672195 0.07649055
000230 65 0f b5 3d 8c cd 2f 38 6f 89 3f 3e 97 d5 d5 bb
       0.08840827 4.191468e-05 0.1870477 -0.006525706
000240 d3 26 17 3d b1 3a 9d 3d 63 d7 14 3c 73 1a 0a 3e
       0.03690226 0.0767721 0.009084555 0.13486652
000250 a5 f1 cc 3c 8b b1 6b 3e f4 b2 35 3e 68 3d 1a 3e
       0.025017569 0.23016946 0.17744046 0.15062487
000260 64 80 0e be 40 a5 2a 3e 36 ee 0a 3e 9f b2 63 3e
       -0.13916165 0.166646 0.13567433 0.22236107
000270 c5 3a 12 be 90 13 67 be 12 08 b5 bd 24 cd f3 3d
       -0.14280231 -0.22566056 -0.0883943 0.11904362
000280 f8 82 d4 3d a7 49 0f 3e a3 c2 03 bd 20 20 3e 3e
       0.10376543 0.1399294 -0.032168042 0.18566942
000290 be ce 2b 3e 20 92 a0 bd 48 b8 30 bd 97 0c c0 3d
       0.16778085 -0.07840371 -0.043144494 0.09377401
0002a0 81 87 ff bd 26 56 89 bd 9d b0 ce 3c 32 ba a0 bd
       -0.12477017 -0.06705885 0.0252307 -0.07848014
0002b0 bf b8 5a 3b 73 72 5c 3d 92 af ff ba dc 6a 0d 3d
       0.0033374277 0.053820085 -0.001950728 0.034525737
0002c0 d4 d7 d7 bd f2 9b 06 3e 98 15 c7 bd 9e 1c 38 bd
       -0.10539213 0.13145426 -0.097209156 -0.044949166
0002d0 85 09 b1 bd 1d 86 1c 3e 59 3d ae bd 0f 7c 57 bc
       -0.08644394 0.15285535 -0.08507795 -0.0131521365
0002e0 5b 5c e7 bc e5 d0 56 3e af 24 ed bc 5a 65 41 be
       -0.02824228 0.20978124 -0.028948156 -0.18886319
0002f0 ad 7c 09 3d 12 1e 18 be b2 ab df 3d d1 6f 50 3e
       0.033566166 -0.14855221 0.1092142 0.20355155
000300 19 4a c1 3c 24 60 86 3c 17 fb 6f bc 32 1d 00 be
       0.023594903 0.016403265 -0.014647267 -0.12511137
000310 db d8 a0 3d 51 9c e4 bd 49 db 5b 3e 04 b9 0b be
       0.07853862 -0.111626275 0.2147037 -0.13644797
000320 0a ea 4e 3e d0 e2 77 be ac ef 17 be 40 11 35 3e
       0.20206466 -0.24207616 -0.14837521 0.17682362
000330 f7 bf b4 bd 22 33 80 be 2c 71 a9 bd 59 fd ba bd
       -0.08825677 -0.2503901 -0.08273539 -0.091303535
000340 d3 74 63 3e 48 95 51 bd fb 9f 17 3e 61 e7 60 3e
       0.22212534 -0.051167756 0.14807121 0.21963264
000350 a7 93 9e 3c fd 20 f9 3c c1 d5 a8 3d d2 0e fb 3d
       0.019357515 0.030411238 0.08243895 0.12258686
000360 c7 af 12 be 88 09 e9 3d a4 fe 0c be aa f2 a8 3d
       -0.14324866 0.11378771 -0.13769013 0.082494095
000370 71 05 b9 3c f9 2a d8 bc b1 1c 1e 3e 29 14 fb bc
       0.022585602 -0.026387678 0.15440632 -0.030649262
000380 75 30 36 3d a5 6c 74 3d 7a eb 55 be ed dc c0 3d
       0.044479806 0.059673924 -0.20890608 0.09417138
000390 00 af 5b bd e9 9b 15 3e f6 d1 0f bd ef ce 17 3d
       -0.05363369 0.14610256 -0.035112344 0.03706258
0003a0 48 82 54 be 69 6a a6 3d 0f 89 04 3d 9c 57 27 be
       -0.20752823 0.08125765 0.03235727 -0.16342014
0003b0 0c ba 32 3e 83 8a 85 3b 0e 65 55 3e 00 62 e5 3c
       0.17453784 0.00407535 0.2083933 0.028000832
0003c0 62 33 6f 3e e3 a8 77 be ce 24 61 be 34 13 0b bd
       0.23359445 -0.24185519 -0.21986696 -0.03395386
0003d0 2e d0 8a 3c af af 80 be e6 60 d7 3d 60 59 a5 bd
       0.016944971 -0.25134036 0.10516529 -0.080736876
0003e0 8e 01 75 bd 9d 08 91 3d 81 52 f5 bd 6e 43 4e 3d
       -0.059815936 0.07081721 -0.11978627 0.050357275
0003f0 be c8 eb 3d 8f 21 c1 bd e3 55 42 bd b5 dc 3d bd
       0.11512898 -0.09430229 -0.04744519 -0.04635306

model.lstm.bias_ih_l0 f4 [40]
000000 05 99 93 bd fd cc 38 be c5 91 51 3e 14 e2 37 3e
       -0.072069205 -0.18046947 0.20465763 0.17957336
000010 ac 90 96 3e be 9c 59 3e 1f 87 cc 3d 7f 72 07 3e
       0.2940725 0.21251199 0.0998671 0.1322727
000020 51 b0 7b 3e f9 99 38 3e ff c5 1c 3d 94 5a a0 3e
       0.24578978 0.18027486 0.03827476 0.31319106
000030 d4 75 8f 3e 68 ae 84 bc 65 c9 47 bd 0c 8e 50 be
       0.28019583 -0.016196445 -0.04877605 -0.20366687
000040 65 3a ef bd 79 96 a7 3c cf c6 8e 3e 20 a5 08 3e
       -0.1168106 0.020457493 0.27886054 0.1334424
000050 b4 c3 82 3e 4a ea 70 bd 69 9a cb bd 0e 1e 20 bd
       0.25539935 -0.058817185 -0.09941561 -0.039091162
000060 d0 97 98 be e0 d5 50 3d 53 c9 c3 be d3 e7 8f bd
       -0.29803324 0.050985217 -0.38239536 -0.07026639
000070 a7 a2 1e 3e e8 e0 71 be 1c 0c 18 bd e9 b5 53 3e
       0.15491734 -0.23620951 -0.037120923 0.20674862
000080 e1 d0 41 3e 33 cd 29 3e e2 d5 12 be a9 ad 23 be
       0.18927337 0.16582184 -0.14339402 -0.15984215
000090 18 29 b9 3e e0 12 ff 3d 32 bb db bd 30 61 30 be
       0.36164165 0.12454772 -0.10729064 -0.17224574

model.lstm.bias_hh_l0 f4 [40]
000000 e5 70 ce 3d 39 3f 2f be cf ce 5b be fe 6c 8c be
       0.10080127 -0.17113961 -0.2146561 -0.27426904
000010 32 53 6b be 78 e2 c8 bd 48 29 41 3e 13 65 48 3e
       -0.22980955 -0.098088205 0.18863404 0.19569807
000020 74 ef fb bd 4b 45 40 be 38 c6 1f be f0 28 96 bc
       -0.123015314 -0.18776433 -0.15602958 -0.018330067
000030 72 65 89 3e 7d 6a 30 be ac c1 50 3c 37 be b9 3e
       0.2683521 -0.17228122 0.0127414875 0.36277935
000040 fe 37 51 3e 41 81 ab bc 14 26 84 3d c6 6e d1 bd
       0.20431516 -0.020935657 0.06452575 -0.102262065
000050 f2 a9 a0 be 2d 69 ad 3e 7a f5 52 be 35 b1 28 3e
       -0.31379658 0.33869305 -0.20601454 0.16473849
000060 f8 b2 03 3d b6 41 6d 3e 67 ef ed bc 0a 3e 61 be
       0.0321531 0.23169598 -0.02904482 -0.21996322
000070 81 a6 5c be 55 ac 7d 3d c1 c5 5b be 39 99 be 3e
       -0.21547891 0.061931927 -0.21462156 0.37226275
000080 f6 d3 c4 3d 69 fd 53 be 1f 20 98 be ef eb b3 3e
       0.09610741 -0.20702137 -0.29712006 0.3514094
000090 5c 07 e2 3e 76 06 89 3e 63 39 44 3d 34 36 c7 bd
       0.4414624 0.26762742 0.04790629 -0.09727135

model.lstm.weight_ih_l0_reverse f4 [40, 3]
000000 84 44 34 be 3a f7 c5 bd 32 0c 07 be a8 7b 2d 3b
       -0.17604262 -0.09666295 -0.13188246 0.002647141
000010 4a 53 1d 3d c8 b4 1c bc 35 09 6f 3d cd 3a 46 3c
       0.03840951 -0.009564586 0.05835839 0.01209898
000020 bb e6 b9 3d 8a 37 57 3e 0b 7c 69 bd f1 dc 9b 3d
       0.090772115 0.2101728 -0.057003062 0.076105006
000030 0f 89 15 bc 0a d1 e7 bd 2b fc 44 3e f4 bb a9 3c
       -0.009126916 -0.11319168 0.1923682 0.020719506
000040 c8 5e 0d be 6e 64 13 3c 80 e4 68 3e a7 cd c5 3d
       -0.13805687 0.008996112 0.22743416 0.09658366
000050 6c 11 af bd b9 2b ef 3d ce 41 11 3e 20 ac 11 3d
       -0.08548245 0.11678261 0.14185259 0.03556454
000060 64 c0 0e be c0 0b b9 3d 3d a4 84 bd 4a ac 38 be
       -0.13940579 0.09035444 -0.064766385 -0.18034473
000070 7b 6f 0d be 1c 86 04 3e a5 96 77 bd 14 ed c6 bd
       -0.13812058 0.12941784 -0.0604464 -0.09713188
000080 da b9 5a 3c f2 d2 6f 3e 7e 79 47 3e 32 41 5c 3e
       0.0133499745 0.23420313 0.1947994 0.21509245
000090 c2 37 2b 3e 05 75 55 be 72 1f 8b bc 56 a4 ac 3c
       0.16720489 -0.2084542 -0.016982768 0.021074455
0000a0 9e 88 b7 bd 52 5a 83 3e 91 e9 80 3e 92 dd 48 bd
       -0.089616045 0.25654846 0.25178197 -0.04903943
0000b0 53 9a 1a bd 88 b4 32 3c d2 fc 25 3e 11 70 e8 bd
       -0.03774483 0.0109073 0.16209725 -0.113495
0000c0 0a ee c2 3b 74 44 06 3e e7 0f 1d 3e ca 11 92 3d
       0.0059487866 0.1311205 0.15338098 0.07132299
0000d0 db 5f 3e 3d 40 5c 1f 3e 2a 1c 05 bb 81 8a f5 bd
       0.046478134 0.15562534 -0.0020310977 -0.11989308
0000e0 dd a3 ba bd 84 8c 38 3e 99 5c bd bd 6e 1e ef 3d
       -0.09113286 0.18022352 -0.09246177 0.11675726
0000f0 80 4a 27 3e 2d 81 0d bd 14 00 7a 3d 8c 1a 31 be
       0.16337013 -0.03454702 0.06103523 -0.17295283
000100 8a 32 d4 bd 9e 2f 3a bc 5f 95 95 3e 20 9a 31 3e
       -0.10361202 -0.011363892 0.29215524 0.1734395
000110 fd f4 f0 3d a9 72 68 bd f9 16 fa 3d bc 89 97 bd
       0.11765478 -0.056749973 0.12211413 -0.073993176
000120 d1 bd 8e 3e 62 16 e9 3d d2 61 8b bd be 3d 35 be
       0.27879193 0.11381222 -0.06805767 -0.17699334
000130 fb 9f 3e b9 25 5e 01 3d 1c e4 0d be 92 c6 1e 3e
       -0.0001817941 0.031583924 -0.13856548 0.15505436
000140 d6 c5 b5 3d ef d0 12 3e f2 64 1e be 6f 82 86 3d
       0.08875625 0.14337514 -0.15468195 0.06567847
000150 fb 78 17 be 29 7c df 3c a7 da 07 3e 37 d8 fb bc
       -0.14792244 0.027280884 0.13267003 -0.030742748
000160 45 18 d0 bd c3 07 5b be 15 63 54 be 40 fb 67 bd
       -0.10160879 -0.2138968 -0.20740922 -0.056636095
000170 b6 3d 00 be 6c 8f 89 3e 60 ba 27 3e b4 92 bb 3b
       -0.12523541 0.26867235 0.1637969 0.0057242755
000180 3e c8 0f bc 64 7e 25 be 1c 2e b0 3d 90 d7 42 3d
       -0.008775769 -0.16161495 0.08602545 0.047568858
000190 04 d0 73 be 7c c7 c7 3d ed 70 10 3e 8e a0 df 3d
       -0.2380982 0.097548455 0.14105578 0.10919295
0001a0 d2 b1 a3 3d 5a 9d 6b 3e d2 75 c5 3b a1 05 19 bd
       0.07992901 0.23009244 0.006026008 -0.037358884
0001b0 ef 67 54 bd b0 7d ec bd 59 e2 32 3e d4 0d 87 3e
       -0.05185693 -0.115474105 0.17469157 0.26377738
0001c0 19 5f 46 be 04 32 e8 3d 9e 90 b6 bd 93 58 15 3d
       -0.19372214 0.11337665 -0.08914302 0.036461424
0001d0 de 51 39 bd 22 16 aa 3d 5a 86 4f 3d 41 81 22 3e
       -0.04524409 0.08305003 0.050665237 0.15869619

model.lstm.weight_hh_l0_reverse f4 [40, 10]
000000 50 52 73 3d e4 73 10 3e e6 c9 1a 3e 19 17 15 3d
       0.05940467 0.14106709 0.1511608 0.03639898
000010 e9 74 51 be 02 7f 0e be 78 4c 9d bd 2d 84 10 bd
       -0.20454754 -0.13915637 -0.07680601 -0.035282303
000020 bb f1 14 be ff 0a 64 3c d6 4c d3 3d 3e 78 8d be
       -0.14545338 0.013918637 0.1031739 -0.276308
000030 55 7e ee bd e2 db 81 be 72 08 60 bd 75 b7 67 be
       -0.1164519 -0.2536307 -0.054695554 -0.22628577
000040 f1 55 e7 bd 0e 58 27 3e 5f 99 b5 bd c7 fc 5f be
       -0.11295689 0.16342184 -0.08867144 -0.2187377
000050 a6 db e0 bd 91 5d 65 3d dc 79 4f 3e bb 79 19 be
       -0.109793946 0.055997435 0.2026133 -0.14987843
000060 d7 65 af bd b6 88 4a be 24 10 7f be e2 1a 05 be
       -0.08564346 -0.19778714 -0.24908501 -0.12998536
000070 25 13 5b bd 31 13 b2 3c 1e 0f 00 3e 76 cd 7d 3c
       -0.053485055 0.021737667 0.12505767 0.01549088
000080 3e f1 9b bd cf cb 92 be cd fb 32 3e b0 3c 29 3e
       -0.07614373 -0.2867112 0.17478867 0.16527057
000090 d7 01 57 3e 76 05 17 be f1 b3 90 3d 34 4c 88 bd
       0.20996796 -0.14748177 0.07065571 -0.066551596
0000a0 24 a1 4a 3d 7c 2c 70 be eb b8 29 bd f7 1c 44 bc
       0.049470082 -0.2345447 -0.041436117 -0.011969796
0000b0 41 15 21 3e 5d 14 3d be 3f b3 ec bc 33 f1 ba 3d
       0.15730764 -0.18464799 -0.028894065 0.09128036
0000c0 a5 77 34 be 15 10 df bd 45 40 ea bd 6e ff 5e bd
       -0.17623766 -0.10891739 -0.1143804 -0.054442815
0000d0 3a 05 52 3e aa 10 e2 3c a4 3d b6 bc 34 74 cf bd
       0.20509806 0.027595837 -0.02224619 -0.10129586
0000e0 9d 68 3c be b4 50 7f 3e a5 ba 75 be c5 ac e3 bc
       -0.18399282 0.2493313 -0.2399698 -0.027792344
0000f0 b4 02 c7 3d 30 6c 1d b9 72 b0 80 3d e5 6a 0d be
       0.097173125 -0.0001501299 0.06283654 -0.13810308
000100 cc 71 12 be 3d ac 11 3e be a8 6e bd 34 ba 34 bd
       -0.14301223 0.1422586 -0.058266394 -0.04412289
000110 44 b9 74 3d 8a f1 ac 3d 0b 68 c3 bd 80 a2 f8 bd
       0.059746996 0.084445074 -0.09541329 -0.121403694
000120 d6 05 26 be a5 d9 79 3c 14 bc d2 bd 09 0c 94 3d
       -0.16213164 0.015249644 -0.10289779 0.07228858
000130 ac 3e c2 3d 24 d1 df bd d0 65 2b 3e 5f ad 1c bd
       0.0948461 -0.10928562 0.16738057 -0.038251277
000140 b9 84 59 3d 50 6f 8e 3d 41 c9 8a 3e e6 25 fc bd
       0.05310509 0.06954825 0.2710667 -0.12311916
000150 12 d5 04 3e 6b 96 cc bd 90 11 c1 bd ab 28 8b 3e
       0.12971905 -0.099896275 -0.09427178 0.27179465
000160 38 4e a2 bb 78 72 93 3d bb 0b 7a bd 81 21 43 bd
       -0.004953172 0.071995676 -0.061046343 -0.047639374
000170 f8 62 eb 3d 20 1f 10 39 92 43 68 bd d4 42 f8 3d
       0.11493486 0.00013744505 -0.056705065 0.121221215
000180 51 72 0b be 10 f6 31 3e f0 16 5a 3c 1a 19 9a 3d
       -0.13617827 0.17379022 0.013311133 0.07524319
000190 8a 7e 55 be 8d 38 78 bc f3 04 98 bd f7 66 06 be
       -0.20849052 -0.0151502015 -0.07422819 -0.13125215
0001a0 26 5f 9f bc 15 46 5c be 05 90 d7 bd 37 58 62 3e
       -0.01945455 -0.21511109 -0.105255164 0.22103964
0001b0 ab 62 78 bd cb af 1d 3e 2c d2 09 be cc f5 7d 3a
       -0.060640972 0.15399091 -0.1345908 0.00096878107
0001c0 99 7d 0d 3e 5a 59 ab 3d c4 39 f0 3d 3d 40 de 3d
       0.13817443 0.08366652 0.11729768 0.10852096
0001d0 f4 1a bb bd e1 ba c1 3d 7f 5e 02 bd 65 d3 b4 3d
       -0.09136 0.094594724 -0.0318284 0.08829383
0001e0 97 10 d3 3d 8e f5 72 bd bb 58 3b be 18 48 26 be
       0.10305899 -0.05931621 -0.18295567 -0.16238439
0001f0 1c 83 3f 3e e6 69 61 be eb 07 db bd 29 e2 09 be
       0.18702358 -0.22013053 -0.106948696 -0.1346518
000200 9b d5 b2 bd ad cf 31 3e 5c d5 10 3e 6b 04 62 3d
       -0.08732148 0.17364378 0.1414389 0.055179995
000210 da 4d 24 3e e0 5a 79 be d9 5b f3 bd bd 07 29 3e
       0.16045323 -0.24351072 -0.11882753 0.16506858
000220 ca 24 51 3e b9 59 10 3d 80 16 9f bd ab c0 22 3d
       0.2042419 0.035241816 -0.077679634 0.039734524
000230 3d 45 41 3e 21 9a a5 3d e5 76 74 3e 44 70 a7 3d
       0.18874069 0.080860384 0.2387348 0.0817571
000240 36 17 24 bc b8 37 6a be d1 16 50 be 0b 20 cf 3d
       -0.0100153 -0.22872818 -0.20321204 0.101135336
000250 5a 6f 55 be 10 92 ff bc 44 48 5d 3e 94 35 85 bd
       -0.20843259 -0.031197578 0.21609598 -0.0650436
000260 0d 69 4e 3e 6b cf 13 3e 51 1f 66 3e 8d b4 04 3e
       0.20157261 0.14434592 0.22472884 0.129595
000270 1b ff 2e be eb c1 c2 bd a2 e5 fc bd d9 3a 71 bd
       -0.17089503 -0.09509643 -0.123484865 -0.058894012
000280 32 10 39 3d 9e c3 83 3d 15 87 67 3e c2 5b 02 3e
       0.04518146 0.064337954 0.22610123 0.12730315
000290 84 6c 07 be 54 fd 23 3e 24 3f 39 3e a8 ff 47 bc
       -0.13224989 0.16014606 0.18090492 -0.012206949
0002a0 1b b1 b0 3d 30 e1 e2 3d 58 de b8 3d dc 25 25 bd
       0.0862753 0.11078107 0.09026784 -0.04031931
0002b0 50 96 36 be 3b c2 87 3d 33 77 e7 bd a4 0f d4 3d
       -0.17830777 0.066288434 -0.11302032 0.10354546
0002c0 73 17 05 bc b9 1f fb 3c 37 88 8c bd 46 69 50 bd
       -0.0081232665 0.030654775 -0.068619184 -0.050881647
0002d0 fb 39 dd bd 82 69 1c be 12 26 02 3e aa 02 0d be
       -0.108020745 -0.15274623 0.12709835 -0.13770548
0002e0 e2 f8 0b 3e 9f ac 16 bd 2f fa 2c bc d9 be 42 3e
       0.1366916 -0.036785718 -0.010557695 0.19018115
0002f0 88 27 86 3c 08 f2 b7 3d 0d 85 8b 3a 45 1b 4e 3e
       0.016376272 0.08981711 0.0010644511 0.2012759
000300 05 27 1c 3e d3 65 d3 bd 26 f3 84 be 2a 0c 56 be
       0.1524926 -0.10322156 -0.25966758 -0.20903078
000310 2a 9c 2e be 83 e7 e0 3d 61 db d2 bc 76 25 a9 3d
       -0.1705176 0.10981657 -0.025739374 0.08259098
000320 f5 52 35 3e 61 6e 49 3b 16 cb ab bd 2e 2a 1a be
       0.17707427 0.0030735957 -0.08388345 -0.15055153
000330 c1 d0 8b bd a0 3f 54 be e8 48 ea bd 6e 8c ef 3d
       -0.06826926 -0.20727396 -0.11439687 0.11696707
000340 cb cc 91 3d 78 9c be 3d f9 e2 12 3d 44 d4 e7 bd
       0.07119139 0.09307188 0.03586099 -0.11319783
000350 7b 2d fb bc 69 67 b9 3d 8b 2a ed 3d 12 82 c1 3d
       -0.030661335 0.09052927 0.1158038 0.09448637
000360 9f fd 03 be 0f ef e4 bd bb de 32 be 59 53 fb bc
       -0.12889718 -0.11178409 -0.17467777 -0.030679392
000370 7d f5 8f 3d 5a 04 21 be d2 50 f4 bd e3 59 0c be
       0.07029245 -0.15724316 -0.11929478 -0.13706164
000380 7b 20 b5 bb d8 1c f4 bd 63 87 05 bd 44 63 0d be
       -0.0055275536 -0.11919564 -0.032599818 -0.13807398
000390 3b ab 1e be 76 0c 3a 3e 94 f8 29 3e d4 68 1d 3e
       -0.15495007 0.18168816 0.16598731 0.1537202
0003a0 87 2c bc bb bf 54 24 bd 76 1e c8 bd bc 1b 3b 3d
       -0.0057426128 -0.040119883 -0.09771435 0.045680746
0003b0 f3 e5 75 3d c0 b9 07 be 67 85 75 bc 5b a3 0f be
       0.06003375 -0.13254452 -0.014985419 -0.14027159
0003c0 28 88 9c bd 08 fa 04 be aa f0 30 bd d7 0d 8b 3d
       -0.07643157 -0.12986004 -0.043198265 0.06789749
0003d0 7c c4 f5 3c d2 57 78 bb e1 66 fb 3d 36 91 08 be
       0.030000918 -0.0037894142 0.12275482 -0.13336644
0003e0 76 ef 94 3d 58 e2 0a bd 8c 62 4d 3d 4b 4a 0e be
       0.07272236 -0.033907264 0.05014281 -0.13895528
0003f0 ef 13 a7 3c 4d 27 b8 bd 39 d7 b0 bd 29 7a 40 3e
       0.020395247 -0.08991871 -0.086348005 0.187966

model.lstm.bias_ih_l0_reverse f4 [40]
000000 25 c3 9b bd 0c 2c b4 bc 00 af 9f bc 53 8c c3 3d
       -0.0760558 -0.02199366 -0.019492626 0.09548249
000010 4e 58 78 3e cc a8 a0 3e 28 81 63 3e 81 4c b1 3e
       0.24252436 0.31378782 0.22217238 0.3462868
000020 7f 31 1a be 66 3a 62 3e 85 87 0e 3e c6 cf 07 bb
       -0.15057944 0.2209259 0.13918884 -0.0020723208
000030 91 ce 9b 3e 43 44 b6 be fb 61 30 bc 22 f6 28 be
       0.30431035 -0.35598955 -0.010765548 -0.16500142
000040 e5 a3 1e 3e ae 5f 56 be 86 8f 23 bd 40 80 b9 3d
       0.15492208 -0.20934936 -0.039931796 0.09057665
000050 d2 83 0b be 9a 56 92 3e d4 e6 6f 3e 57 d5 21 be
       -0.13624504 0.28581697 0.23427898 -0.15804039
000060 f5 39 7e bd eb 94 70 be c1 61 9f bd 1a 25 2e 3e
       -0.06206699 -0.23494308 -0.07782317 0.1700634
000070 8e 54 06 be 93 5a 7a 3e 4a f6 92 3e ea 94 bd 3e
       -0.13118193 0.24448614 0.2870353 0.37027675
000080 12 f9 33 bd 3c 76 3f 3e bf 3c c2 3e fa 59 e4 bd
       -0.043938704 0.18697447 0.3793697 -0.11149974
000090 e9 47 2b be 8d d8 5d be 77 5f dc 3d 21 0c 6a 3e
       -0.1672665 -0.21664639 0.10760396 0.2285619

model.lstm.bias_hh_l0_reverse f4 [40]
000000 6c 2b e3 bc 50 fc 55 bd 75 d9 02 bc d8 70 7e be
       -0.027730666 -0.052242577 -0.007986416 -0.24847734
000010 0d 4f a3 3e 16 00 c7 3e aa 67 12 be 97 68 14 3e
       0.31896248 0.38867253 -0.14297357 0.14493023
000020 05 0d 23 3e ca b3 49 3e 2e d3 37 3e 58 cc 68 3e
       0.15922935 0.1969749 0.17951652 0.22734201
000030 06 4d 41 bd 56 32 77 3e 31 3f 9a 3c 10 5d 70 be
       -0.047192596 0.24140295 0.01882896 -0.23473
000040 fb b9 60 3e 77 1e a8 bd de cf 4b bd 2a eb 24 3e
       0.21945946 -0.08208936 -0.049758784 0.16105333
000050 f6 33 11 3e e3 22 7a be ca 09 64 3e 73 cc 2d 3e
       0.14179978 -0.2442737 0.22269359 0.16972522
000060 63 4e 5f 3d 6b b4 f6 bd 25 67 af be 16 16 8b 3e
       0.054518115 -0.12046131 -0.3425838 0.27165288
000070 df 32 c6 be ac 44 a3 be 10 32 a9 3e 8d 88 30 3c
       -0.38710687 -0.3188833 0.33046007 0.010774744
000080 09 a5 08 be 42 30 38 3e 90 86 5e 3e 04 f0 1a be
       -0.13344206 0.17987159 0.21731019 -0.15130621
000090 23 69 3b 3e dc 0e b2 3e 7f 6a c6 3d 5c e5 94 3e
       0.18301825 0.34776962 0.09688281 0.29081237

model.lstm.weight_ih_l1 f4 [40, 20]
000000 e2 81 05 be a9 8a 1d be c4 09 75 bd 20 94 b9 3d
       -0.13037828 -0.15384926 -0.059823766 0.09061456
000010 a4 91 6c 3c 1c 28 09 3d 80 42 80 be 5a 3f db bc
       0.01443902 0.033485517 -0.25050735 -0.026763607
000020 b6 c0 21 bd 2b 7c 4a be 2d 59 43 bd 61 c8 6b 3d
       -0.039490424 -0.19773929 -0.047692467 0.057564143
000030 c8 58 38 3c c0 52 9a 3d fe f8 dc bd a7 c0 17 bd
       0.011251636 0.075353146 -0.10789679 -0.037048962
000040 9d 34 d2 bd 2b 8e 2f 3e 80 e7 13 be 59 00 87 be
       -0.102639414 0.17144077 -0.14443779 -0.26367453
000050 85 01 21 3e b5 e3 00 bc d5 81 89 be e2 55 3b 3e
       0.15723236 -0.00786679 -0.26856866 0.1829448
000060 d2 bc 41 be ba 62 64 be e3 65 1b bd 83 a3 a5 bd
       -0.18919685 -0.22303286 -0.037938964 -0.08087828
000070 ed 14 a8 bc 5d 7c 28 be 2e 04 1f 3e 5d 7f d2 3d
       -0.02051779 -0.16453691 0.15528938 0.10278199
000080 8a 58 80 bd 51 9f 9d bc 26 b2 57 3d 46 b4 12 be
       -0.062668875 -0.019241007 0.05266013 -0.14326581
000090 9b 10 77 bd 10 7b 6c 3e bb 15 e0 bd dc 51 0e be
       -0.06031857 0.2309382 -0.10941645 -0.13898414
0000a0 48 1f 5b 3b 13 49 21 bd f8 04 6d 3c c3 46 c7 3d
       0.0033435393 -0.03937633 0.014466517 0.097302936
0000b0 7e 78 94 3c 91 db 7b bd 24 bd 26 bb 2f 29 2e 3e
       0.018123861 -0.06148869 -0.0025442326 0.17007898
0000c0 87 c8 38 3e e1 40 37 3d a1 55 11 3e 29 6b 71 be
       0.18045245 0.044739608 0.14192821 -0.23576035
0000d0 63 11 55 3e 69 98 35 bb d6 f8 6f 3e e8 f2 ef bd
       0.20807414 -0.0027709252 0.23434767 -0.117162526
0000e0 47 ca 1b 3d 0a 82 9a bc 55 55 ef 3b 0e 7a 36 3d
       0.038034704 -0.018860836 0.0073038735 0.044549994
0000f0 d0 7e 89 bd 94 13 94 bd 42 49 ba 3e d2 4d c4 bc
       -0.06713641 -0.07230297 0.36384016 -0.023962889
000100 45 99 6b be 1c 18 15 3d 3d ef 3b 3e 10 d8 2f be
       -0.23007686 0.036399946 0.18352981 -0.17172265
000110 46 e7 58 be d6 29 84 3e 3c d9 0b be e7 64 3b 3e
       -0.21181974 0.25813168 -0.13657087 0.1830021
000120 58 bc 9d be 0f 68 1e be fd 6d cb 3d f4 69 7a 3e
       -0.30807757 -0.15469383 0.09933088 0.2445448
000130 f0 80 f6 3d e9 7c 4a bd 41 5c ac 3a e9 42 f1 bd
       0.120363116 -0.04943553 0.0013150052 -0.1178034
000140 49 05 23 be e1 11 86 3d 8a 87 07 3e 3e c6 1b 3e
       -0.15919985 0.06546379 0.13235298 0.15212342
000150 6c ef ac 3c 54 b9 fb 3d 72 d3 93 bd a6 f9 b6 bd
       0.021110259 0.12291208 -0.07218064 -0.089343354
000160 27 66 b8 bd 77 32 2b 3c fc bf 44 bd 51 56 23 be
       -0.09003859 0.0104490435 -0.048034653 -0.15950896
000170 c2 90 d8 3c d7 05 fc 3d 97 9f 05 3c 4b f5 9f bd
       0.026436213 0.12305801 0.008155725 -0.07810458
000180 d3 12 b4 bd 54 14 2e bd 80 86 fb bd 68 b9 80 3d
       -0.08792653 -0.042499855 -0.12281513 0.062853634
000190 02 2b c5 3d e7 f4 26 3e 2c 2d 16 be 7d 21 79 3d
       0.09627344 0.1630436 -0.14665669 0.060822953
0001a0 d2 e2 50 3d e3 e3 a3 3d 7c 3d 5c 3c d4 ee 21 be
       0.050997563 0.0800245 0.013442393 -0.15813762
0001b0 0f e2 ba 3b 60 e3 09 be e7 5e 1e 3d 70 9e d4 bc
       0.005703218 -0.13465643 0.038664725 -0.025954455
0001c0 0f f3 c0 bc 0b c6 35 3e 58 19 e0 bd cc cf 46 be
       -0.0235534 0.17751329 -0.10942334 -0.19415206
0001d0 65 7f 3f be dd 57 e9 bc 94 a9 6e be d2 7d df 3c
       -0.18700941 -0.02848428 -0.23306876 0.027281675
0001e0 a6 0b 9c 3d d0 2f 36 3e b1 01 c0 b9 d1 b8 22 3e
       0.07619409 0.17791677 -0.00036622354 0.15890814
0001f0 40 59 42 3d 00 23 e4 3d 79 83 e7 bd 09 31 b7 bc
       0.047448397 0.11139488 -0.11304373 -0.022362249
000200 ce a5 93 bd 2c 77 90 be eb f8 9d bd ba bf 4c be
       -0.07209359 -0.2821592 -0.07713493 -0.19995013
000210 2a 69 2d 3e 09 f2 35 be eb fa 22 3e 9c ac fb bd
       0.16934648 -0.1776811 0.1591603 -0.12288782
000220 6f 68 a1 bd 2d d8 29 3d 76 93 3f be 5b bd 57 3d
       -0.07881247 0.041465927 -0.18708596 0.052670818
000230 6b 9b 53 bc 28 96 5d 3e 1a 9a 4f be e5 72 28 be
       -0.0129154725 0.21639311 -0.20273629 -0.16450079
000240 28 f2 16 be a2 3a d7 3c cc ca 07 be 59 65 46 3d
       -0.14740813 0.026273075 -0.13260955 0.048436496
000250 42 83 0d be b2 1b 21 bd f5 32 f4 bd d6 ca fc 3d
       -0.13819602 -0.039333053 -0.11923782 0.123433754
000260 e8 a4 e5 bb f3 a3 c3 bd 48 15 03 bc cb 4c a1 bd
       -0.0070081837 -0.09552755 -0.008000679 -0.07875975
000270 c0 7d 9a bd fe 50 46 3e b6 a8 b6 bd 89 2a 2d 39
       -0.07543516 0.19366834 -0.08918898 0.00016514411
000280 5b 60 b8 3c c3 a0 82 3e 5e 4c 46 3e ec 58 06 bd
       0.022506883 0.25513276 0.1936507 -0.032799646
000290 c5 7d e2 bd fd a0 87 3e 99 a3 07 bd 8f f0 b1 3d
       -0.11059145 0.26490012 -0.033115003 0.08688461
0002a0 e4 9d 0d be 5b 5d f2 bc c9 37 53 be 46 b9 f5 b9
       -0.13829762 -0.029585531 -0.20626749 -0.0004686808
0002b0 76 46 0e be 94 64 b8 3d d1 85 38 be 42 ff 33 3e
       -0.13894066 0.09003559 -0.18019797 0.17577842
0002c0 d6 80 19 3e da 13 4f bd 1d 05 d5 bd 4d a8 1e 3e
       0.14990553 -0.05055604 -0.10401366 0.15493889
0002d0 1c 9d a4 3d f3 f0 81 3c d3 87 b9 3c 36 2d a0 3d
       0.08037779 0.015861964 0.022647774 0.07821123
0002e0 a0 8f b5 bd 29 66 3f 3e 0e ea 2e be 3c f9 8f be
       -0.08865285 0.18691315 -0.17081472 -0.28119838
0002f0 eb 80 10 be 97 29 36 3e fc 00 3c be 63 20 3e bd
       -0.14111678 0.17789303 -0.1835975 -0.046417605
000300 bc e8 9f bd b9 32 6f bc eb 74 3d bd 46 21 8e bd
       -0.078080624 -0.014599496 -0.04625408 -0.0693994
000310 e5 20 4e 3d be 9d 21 be 14 eb 21 3d ca 59 00 3e
       0.05032434 -0.1578283 0.03953083 0.12534252
000320 13 07 05 be d1 c0 f8 3d 8b d4 42 bc 93 43 2a 3e
       -0.1299098 0.12146152 -0.0118914945 0.1662734
000330 47 92 3f bd 08 2b 04 be e3 3e 43 be 34 93 3c be
       -0.04677036 -0.1290704 -0.19066958 -0.18415529
000340 bc 96 15 3d 52 ba 79 bd 36 c1 5b 3e fe 33 d0 3c
       0.036520705 -0.060968705 0.21460423 0.025415417
000350 89 fe e4 3d 33 db 0d bd c0 47 50 3e 7b 9c 0d bd
       0.11181361 -0.034632873 0.2033987 -0.03457306
000360 cd cc ae bd c4 8c c0 bc 5a 4f 42 be b4 6c 96 bc
       -0.085351564 -0.023504622 -0.18975583 -0.01836238
000370 47 2b 99 bd 7e 10 e1 3c 31 e5 8b be af 56 4c bd
       -0.074789576 0.027473684 -0.27323297 -0.049887355
000380 97 88 2f be 09 ca 66 be 99 26 cb bc bc 9a f1 bd
       -0.17141949 -0.22538008 -0.024798678 -0.11797091
000390 ca 18 8c 3e 8b 83 85 be 5a e5 d6 bd 85 7c 02 be
       0.27362663 -0.26076922 -0.10492964 -0.12742813
0003a0 15 70 4a 3e e1 a2 7f be 8f 6f f8 3d 73 5b 84 bd
       0.19769318 -0.24964477 0.12130653 -0.06462755
0003b0 69 b6 a9 3c 47 22 da 3d d9 6a 24 be bc 63 48 3d
       0.020716863 0.10651069 -0.16056384 0.04892324
0003c0 20 1b ab 3d 1d 76 b9 3d 30 d5 7c be 46 02 84 3e
       0.08354783 0.090557314 -0.246907 0.25782984
0003d0 d4 96 cd bc 95 6a 25 bc a7 e6 4d be 6a 9f fa 3d
       -0.025096335 -0.010096212 -0.20107518 0.12237437
0003e0 f1 91 2c bc f2 07 8b be 29 a4 df bd 48 53 40 bc
       -0.010532842 -0.271545 -0.10919983 -0.011738606
0003f0 12 b0 59 bd 58 7b 1c be 32 42 71 3e bd 2d 16 be
       -0.05314643 -0.15281427 0.23560408 -0.14665885

model.lstm.weight_hh_l1 f4 [40, 10]
000000 54 a2 44 3d 5c f1 f0 3d fd 7f 17 be f8 fc 94 bd
       0.04800637 0.11764786 -0.14794917 -0.072748125
000010 24 ee ca 3d 2b 8a 14 3e b4 f3 4b 3e ea 20 bb 3d
       0.09908703 0.14505832 0.19917184 0.09137137
000020 15 3a 64 be 85 4a aa 3d 0d 6e bb 3c 27 0b d0 39
       -0.22287782 0.08314995 0.022879625 0.0003968116
000030 3e 45 d8 3c 86 c6 f1 bd c1 ff ac b9 64 a4 ec 3d
       0.026400205 -0.118054435 -0.00032996948 0.115547925
000040 2d dc da bc c7 5e 72 3b 5d ca 1e 3d da ae 90 bd
       -0.026716316 0.0036982761 0.038767207 -0.070646
000050 2a da a9 3d e1 ba 32 3e 9f 04 e5 bd d8 31 2a 3d
       0.082935646 0.17454101 -0.11182522 0.04155144
000060 d3 9b 90 bd f3 6d fe 3d 50 0f 36 3e 23 d7 df 3d
       -0.07060971 0.12423315 0.17779279 0.10929706
000070 ff 7e 77 bd 85 7f a9 bd cc 8f f5 3c fa 1e 36 3e
       -0.060423847 -0.082762755 0.029975794 0.17785254
000080 66 c2 2b 3d 06 6a 4d 3d 03 43 96 3d 0a c0 47 3e
       0.04193344 0.05014994 0.07337 0.19506851
000090 2e 32 78 bd ed cd 42 3d 36 7b 57 3d 96 c5 57 bd
       -0.06059473 0.047559667 0.052607737 -0.052678667
0000a0 20 e1 65 3d 36 0c 27 3e 46 df 19 3e 38 81 ee bd
       0.0561229 0.16313252 0.15026578 -0.1164574
0000b0 da 74 0e 3d 8d 3e 22 be 81 f0 07 be 01 16 7f 3d
       0.034779407 -0.15844174 -0.13275339 0.062276844
0000c0 dc 57 3e be 8b e3 f3 3d 17 48 1a 3e 7a ff 34 3d
       -0.18588203 0.11908635 0.15066563 0.044188954
0000d0 95 9f b4 bd e0 81 b5 bd ad d8 73 3c 93 99 62 3e
       -0.088195 -0.08862662 0.0148832025 0.22128896
0000e0 e7 cc 7b 3e 2d b2 e7 3d 4b 50 05 bd 70 c8 4f bd
       0.24589883 0.11313281 -0.032547276 -0.05072826
0000f0 b8 a8 3d 3e 4b b5 31 3e 43 d0 2c be a3 53 30 be
       0.18521392 0.17354314 -0.1687632 -0.17219405
000100 68 20 f0 3d d4 90 8e 3d 1e 07 ef bc 2c 3a 22 be
       0.11724931 0.069612175 -0.029178198 -0.15842503
000110 a2 3f 05 bd cf 40 ac 3d 22 2b 74 3e 77 1e f8 bd
       -0.032531388 0.08410799 0.23844579 -0.12115186
000120 37 18 65 3d 6d dd 8b be 6a c8 60 3e 4e 16 54 3e
       0.055931296 -0.27317372 0.21951452 0.20711634
000130 e5 27 5e 3d 73 9c b7 bd 99 12 88 be 3e 9a 66 be
       0.054237265 -0.08965387 -0.2657669 -0.22519776
000140 2a 57 5d 3d c4 24 5f 3e 39 0d 29 3e 1c bd cd 3d
       0.054038204 0.21791369 0.1650895 0.100458354
000150 ff 1c 2c 3e fb a8 30 3e 77 d4 81 3c 6f 68 84 3d
       0.16807936 0.17251961 0.015848381 0.064652316
000160 be 61 92 3d 54 cc 96 3d 83 2c ba bb cc f0 77 3c
       0.07147549 0.07363191 -0.0056815757 0.015133094
000170 47 a6 17 bc 89 ba 8d be 21 8f fc 3d 5d d0 07 3e
       -0.009255952 -0.27681378 0.12331987 0.13263078
000180 3a d6 c0 bc f9 6f 30 3e 58 f0 8d be 86 22 34 be
       -0.023539651 0.17230214 -0.2772243 -0.17591295
000190 d9 cd 16 bc 59 7c a8 3d d6 a4 09 be 2a cf 30 3d
       -0.009204351 0.082268424 -0.13441786 0.043166317
0001a0 d0 09 8c 3d eb e9 ff bd ef 63 e5 bd 57 78 bb bd
       0.06837809 -0.12495788 -0.112007014 -0.091538124
0001b0 13 56 33 be 56 9a 34 be cb 84 25 3d 65 f3 33 3e
       -0.17513303 -0.17637 0.040409844 0.17573316
0001c0 38 8a 84 3d 1d bf 38 3e aa 6d f8 bd eb 83 3b 3d
       0.06471676 0.18041654 -0.12130292 0.045780104
0001d0 b4 6e 19 3e 7d 5f fb 3d 8e d0 07 bc b9 3f d5 bd
       0.14983636 0.12274072 -0.008289469 -0.10412545
0001e0 06 22 c0 bc 75 a7 fd 3d 3c b4 0e 3d 11 5f 14 3e
       -0.023453724 0.123854555 0.034839854 0.1448939
0001f0 4d 78 d8 3d e1 de a9 3d d9 54 9b 3d 0a 8b 09 3e
       0.105698206 0.08294464 0.07584543 0.13431945
000200 c7 83 94 bd 05 6e 0c be 82 48 82 bd f7 65 01 3e
       -0.07251697 -0.13713844 -0.06361486 0.12636553
000210 de b6 91 3c de e6 16 3d 07 b9 8b bd 92 57 dc 3d
       0.017787393 0.036841266 -0.068224005 0.1075889
000220 07 00 12 be 69 b3 aa 3d 43 30 54 be 62 56 94 3b
       -0.14257823 0.08335001 -0.20721535 0.004526899
000230 56 e3 e2 3d 48 b1 5e 3e d7 1d f2 3d a7 ea 4a be
       0.11078517 0.21747315 0.11822098 -0.19816075
000240 4d 10 f2 bd b1 22 31 3e ce 3a 2c bd c1 b0 a2 bd
       -0.118195154 0.1729839 -0.042048268 -0.079438694
000250 c2 4e 1c bd c2 36 43 3d be 3b 77 3e 4e 74 ae 3d
       -0.038161047 0.047659643 0.24143884 0.08518277
000260 71 db 66 be 35 77 fe 3b 15 f4 3c 3e 52 4c 1e 3e
       -0.22544648 0.0077656754 0.18452485 0.15458801
000270 eb 0e 26 3a 56 0e aa bd d3 d7 2e be a7 11 74 be
       0.00063346204 -0.083035156 -0.17074518 -0.23834859
000280 e0 0c 00 3e 23 9f d8 bd f8 b6 02 bd f5 12 ea 3d
       0.12504911 -0.10577228 -0.031912774 0.11429397
000290 04 46 d2 3d 8e 48 d0 3d 81 ea 29 bd 60 b2 44 be
       0.10267261 0.10170089 -0.041483406 -0.1920867
0002a0 c0 16 c1 3d da b7 0a 3e 06 c8 7e 3e 0d 00 11 bd
       0.09428167 0.13546696 0.2488099 -0.03540044
0002b0 82 71 45 3e 91 bc b7 bd 68 0d 79 bd e5 8f 0c 3d
       0.19281581 -0.08971513 -0.0608038 0.034316916
0002c0 ff 37 2f bd ba 90 d8 3a b9 9f 56 3d 7c ab eb bd
       -0.04277801 0.0016522624 0.052398417 -0.115073174
0002d0 20 2d c3 bd 4d f0 d2 bd be 87 cf 3d f0 81 4d be
       -0.09530091 -0.1029974 0.10133313 -0.20069098
0002e0 7b b7 c0 3d f7 d3 89 3d 9b c5 f8 bc 0f 3a 63 3e
       0.09409996 0.06729882 -0.030367663 0.22190116
0002f0 91 3f 86 bd e9 52 97 3c 55 1f 52 bc 6e 75 4a bc
       -0.06555093 0.018472152 -0.012824853 -0.012357099
000300 5d 17 00 3d 3f 81 21 be 76 bd b9 3c 8b ff b7 bd
       0.03127228 -0.1577196 0.02267335 -0.08984288
000310 67 cf 18 be 4f 70 fd 3d 22 40 19 be 91 34 1b be
       -0.14922868 0.12374937 -0.14965871 -0.15156771
000320 65 98 e2 bd 4c 90 1c 3e e2 b5 36 bd fa db ed bd
       -0.11064223 0.1528942 -0.04460705 -0.11614223
000330 84 6d 27 3d da e8 f7 3b 83 95 0f 3e c5 5b b0 bd
       0.040875927 0.0075656 0.14021878 -0.08611254
000340 0e 64 51 be 45 55 ea 3d b8 bd d1 3d 8c 38 80 3d
       -0.20448324 0.11442045 0.10241264 0.062607855
000350 d0 5d 58 be 9a 50 27 3e 8b 68 c8 3d 8c 99 90 bc
       -0.21129537 0.16339341 0.09785565 -0.017651342
000360 9b ec 4e be 4c 9d 85 3e 45 e9 3c bd cf 79 75 bd
       -0.20207445 0.2609657 -0.0461209 -0.05993062
000370 33 7a 2e 3e f3 fe ae bd 93 cf 17 be 98 73 a2 3d
       0.17038803 -0.085447215 -0.14825277 0.07932204
000380 f6 6f 30 3e 11 16 04 3e f6 0b 14 be 64 b5 dd 3c
       0.1723021 0.12899043 -0.14457688 0.027064033
000390 78 f5 52 bd a3 b9 13 bc 15 1d ea 3a 9b f7 85 bc
       -0.05150363 -0.009016427 0.001786145 -0.016353419
0003a0 6d 2a f8 bd 3b 33 c2 bc aa 87 0f be 2e 8f 1b bc
       -0.12117467 -0.02370607 -0.14016595 -0.009494586
0003b0 ff 79 85 3d 3c fd 0b be 0d 87 d0 bd 49 ab db 3a
       0.065174095 -0.1367082 -0.10182009 0.0016759421
0003c0 a5 b3 2b be 67 b1 45 3d 41 3d 39 3e 78 a8 95 bd
       -0.16767748 0.048264887 0.18089773 -0.073075235
0003d0 2a 3b 67 3e 44 77 b5 3d ad a2 ae 3a 27 7a 1b be
       0.22581163 0.08860639 0.0013323628 -0.15183316
0003e0 1d 57 00 be 63 c8 f4 3d 64 91 81 bd 8a 18 7a 3d
       -0.12533231 0.11952283 -0.06326559 0.06105856
0003f0 07 95 e3 3c 57 73 3a bd d5 4d 13 3e 60 c1 e1 3c
       0.027781023 -0.045520153 0.1438516 0.027558029

model.lstm.bias_ih_l1 f4 [40]
000000 d8 3f 1e be ea a0 87 3d c2 27 47 3e be 40 06 3e
       -0.15454042 0.06622489 0.1944876 0.13110635
000010 68 0d 73 be b2 06 c9 3d 19 68 13 be 34 70 75 3e
       -0.23735583 0.0981573 -0.14395179 0.23968583
000020 26 9d 1c 3e 5d 66 44 3e d0 28 45 be 0e c0 ee bd
       0.15294322 0.19179673 -0.1925385 -0.11657725
000030 8c 20 10 bd 07 e7 ee 3b a1 14 8f bd df 76 3b be
       -0.03518729 0.007290724 -0.069863565 -0.18307064
000040 37 7e 85 3e 88 bd 98 bd 5a ee 2c 3e fe c6 39 3e
       0.26072857 -0.07458025 0.16887799 0.18142316
000050 e0 76 bb 3e 49 60 5a 3b 08 73 00 be d0 61 8a be
       0.36614132 0.003332155 -0.12543881 -0.2702775
000060 47 7f bd bd 0f 0c 0b 3e d2 38 1e be 82 57 f9 3d
       -0.09252792 0.13578819 -0.15451363 0.12174894
000070 f2 b5 89 be ab d5 c4 be 04 5d 20 bb 18 4b ad 3c
       -0.26896626 -0.38444266 -0.0024469504 0.021153972
000080 2b 35 b4 3e 04 ad 4e be 85 01 86 3e 7b df 8e 3e
       0.35196814 -0.20183188 0.26173034 0.27904877
000090 b9 64 c2 bd a6 14 01 3e 9a 20 0d 3e 2c c8 2d 3e
       -0.094918676 0.12605533 0.13781968 0.16970891

model.lstm.bias_hh_l1 f4 [40]
000000 0c c8 1f 3c 5e 9d d1 3d 7e 77 a0 3e 65 2f dd ba
       0.009752285 0.102350935 0.31341165 -0.0016875087
000010 84 8b 5a bd e8 62 97 3e 95 2d a0 3e cc 93 47 3c
       -0.05335571 0.29567647 0.31284776 0.012181234
000020 9e 2c 10 be 23 0b 12 3e 09 9d f3 bd 4b bc 01 3d
       -0.1407952 0.14262061 -0.118951865 0.03167371
000030 41 c8 ad bd 80 ee fd 3d cf aa 89 3d 4f 4f 1c bd
       -0.08485461 0.12399006 0.06722032 -0.038161572
000040 55 38 84 3e 10 9a 2c 3e 22 0e 60 be ce 74 19 be
       0.25824228 0.16855645 -0.21880391 -0.14985964
000050 88 83 b2 3e c7 8a 70 3e b7 aa 4b bb 26 22 b5 3c
       0.34865975 0.2349044 -0.0031077096 0.02211101
000060 ff 32 fb 3d 9e 4f da 3e ae a8 98 3e 26 3d 65 bd
       0.12265586 0.42638868 0.29816192 -0.05596652
000070 24 1a 83 be 4e 8f e4 bd c5 80 94 3e aa 5f 94 3c
       -0.2560588 -0.11160146 0.29004493 0.018112022
000080 5f ff b5 bd b4 48 2b 3e fb f5 a6 3e 7f 21 ad 3e
       -0.08886599 0.16726953 0.32609543 0.33814618
000090 38 90 88 3e 9b 6b df 3e ec 9c 01 3e 36 a8 04 be
       0.2667253 0.43636784 0.12657517 -0.12954792

model.lstm.weight_ih_l1_reverse f4 [40, 20]
000000 9e 7d 2a be 88 68 56 3e a7 15 0e 3e 3d b4 a0 bc
       -0.16649482 0.20938313 0.13875447 -0.019617194
000010 ec 08 07 be 01 de 81 3e de 0e bd bd 27 06 49 be
       -0.13186997 0.25364688 -0.09231351 -0.19631253
000020 36 55 52 bd 0f a3 1a be d4 8e ed bc 63 2c 8b 3e
       -0.051350795 -0.15101264 -0.02899877 0.27182302
000030 23 44 0e be 61 30 49 3d f0 74 db bd e0 e7 81 bd
       -0.1389318 0.049118403 -0.107156634 -0.06343055
000040 b9 44 1b be 5d 0e 15 3d 34 b3 25 be b8 a6 a7 3d
       -0.15162934 0.03639065 -0.16181642 0.08186096
000050 4c 0b c8 3d dd cb 22 bd bb 43 80 be f4 c1 12 bd
       0.0976778 -0.0397452 -0.25051674 -0.0358295
000060 4f 04 cf bd 75 7f 07 3e 82 0a 3f be 1b 16 7d bd
       -0.10108244 0.13232215 -0.18656352 -0.06178866
000070 8f 75 61 3e 25 da 82 be ae 5a 98 bd 30 29 20 be
       0.22017501 -0.25557056 -0.07439171 -0.15640712
000080 fe d7 2e 3d 39 75 d9 bd 92 46 a5 3e 27 b9 28 be
       0.042686455 -0.106180616 0.32280403 -0.1647688
000090 a4 c3 38 be 64 94 08 3d e2 92 f3 bd 90 18 ce 3d
       -0.18043381 0.03334464 -0.1189325 0.10063279
0000a0 d8 e2 b8 3d f9 e7 20 3e c3 ce ba bd 05 a8 1c 3e
       0.09027642 0.1571349 -0.09121468 0.1529847
0000b0 1c 30 01 be cf 2c 98 3d 28 69 c7 bd b8 f0 46 bd
       -0.12616009 0.074304216 -0.09736854 -0.04856941
0000c0 ca df 82 bd 23 bb 9d 3d b3 bf 7b bc 85 b0 ba 3b
       -0.063903406 0.07701709 -0.015365529 0.0056973123
0000d0 0c d1 b6 3d 3a 5b 04 be 68 28 ef 3d c7 ea 2d 3c
       0.08926591 -0.12925425 0.11677629 0.010615057
0000e0 7f df 0c be c3 e7 26 3d c7 e4 a7 3d 11 34 88 3c
       -0.13757132 0.04074837 0.08197933 0.01662639
0000f0 7a bb 6d be c0 ed 82 3e 81 a3 87 bd 33 c1 00 3e
       -0.23216048 0.25572014 -0.06622983 0.125737
000100 77 d4 3f 3d a2 25 cf 3c 3c 7d 1a 3d f4 41 d3 bd
       0.04683348 0.0252865 0.03771709 -0.10315314
000110 66 a1 3d be f4 ae 65 bc df 4d 21 3e 12 e0 e2 3d
       -0.185186 -0.014018763 0.15752362 0.11077894
000120 65 d9 a1 3d 5f 82 4e bd c2 32 cb 3d 58 2a 37 be
       0.07902793 -0.0504173 0.09921791 -0.17887247
000130 52 5c 6b be 49 a7 1d 3e 62 38 d4 bd 0d 2b 6e bd
       -0.22984436 0.15395845 -0.10362317 -0.058146525
000140 f2 42 ac bd ed 67 14 bd b8 d6 09 be f8 92 6b 3e
       -0.08411206 -0.036231924 -0.13460815 0.23005283
000150 f0 92 26 be 18 c4 ad bd cf 19 d7 bd 36 d1 0c 3d
       -0.1626699 -0.084846675 -0.105029695 0.034379207
000160 60 4e 1d 3d ad fd 47 3c 13 36 c5 3d 90 ab 9f be
       0.038404822 0.012206477 0.096294545 -0.3118558
000170 f3 23 3b 3e 7d 49 5c be 3d c8 b0 3e bb e7 e0 bd
       0.18275432 -0.21512409 0.3452777 -0.10981699
000180 7a 6e c1 bd a2 83 2a bd 00 84 84 bd 50 b3 55 be
       -0.094449 -0.04162944 -0.064704895 -0.20869184
000190 15 58 72 3c dc 7d e1 3d 26 f2 88 be bd f8 2f 3e
       0.014791508 0.11010334 -0.26747245 0.1718473
0001a0 6e cc c6 bc a2 fa 46 3e ad 16 50 3d ac 73 a7 3d
       -0.024267402 0.19431546 0.050802875 0.081763595
0001b0 ab ac 5b be 2c 2f 42 be 20 ee 8e bd 3c 9b 82 3d
       -0.21452586 -0.18963307 -0.069790125 0.06377265
0001c0 26 9f 10 3e 37 50 89 bd 7e 55 54 3e c5 b4 77 be
       0.1412321 -0.06704753 0.20735738 -0.24190052
0001d0 73 95 9f bd c7 bf 24 bd ac 52 79 bd a6 38 ec bd
       -0.07792177 -0.040221956 -0.060869858 -0.11534242
0001e0 44 84 6b bd 1c 81 36 be cc 56 46 bc 3b 7c 96 39
       -0.057499185 -0.17822689 -0.012105655 0.00028702788
0001f0 76 10 54 be fb 7a b9 bd 35 72 c8 3d 43 78 bb 3d
       -0.20709404 -0.0905666 0.09787408 0.091537975
000200 13 87 1a 3e 08 fb 89 be 8b 80 99 bd 35 c5 74 be
       0.15090589 -0.26949334 -0.07495221 -0.23903354
000210 c6 91 62 3e ea 81 62 be 62 53 73 3d e2 14 68 bc
       0.2212592 -0.22119871 0.059405692 -0.014165135
000220 cb 25 8b bd 46 a9 a3 bd 54 45 c3 3d 3e a8 61 bd
       -0.06794318 -0.07991271 0.09534708 -0.05509209
000230 ce 46 67 be cf 37 0a bd 9a 6a 56 3d 79 c4 6c bd
       -0.22585604 -0.03374463 0.052347757 -0.05780456
000240 15 58 0a be 09 5c 53 3e 1c 1b e2 3d 23 58 9a 3d
       -0.13510163 0.20640577 0.11040327 0.07536342
000250 1e 99 b8 bd 36 ed 38 3d bb 6b 3f be 47 da f2 bd
       -0.0901358 0.045148097 -0.1869344 -0.11858039
000260 ba 1a 6d be 47 ef 8c 3d a3 48 a5 bd 9f 1a 1e be
       -0.23154727 0.06881576 -0.08070495 -0.15439843
000270 db e7 10 be f0 9f 30 3e 68 88 3a be b7 bc ab 3d
       -0.14150946 0.17248511 -0.18216097 0.08385604
000280 80 13 ee bc f7 b8 b4 3d cb 3d af bd 17 cd 52 be
       -0.029062033 0.08824342 -0.08556708 -0.20586048
000290 85 3d b1 3d 74 0c 32 3e 1c c8 29 be b7 7e b2 3d
       0.08654312 0.17387563 -0.16580242 0.08715575
0002a0 13 ce 3b be ef 91 e0 bd 56 c5 17 bd 8b ae 8f bd
       -0.1834033 -0.109653346 -0.03705343 -0.07015713
0002b0 4e c8 54 be 98 47 17 bc 30 5c 77 bd 7d 28 10 3e
       -0.20779535 -0.009233378 -0.06039065 0.14077945
0002c0 3f b9 04 be 77 43 2f bd 71 a2 86 bd f0 c2 0c 3e
       -0.12961291 -0.04278895 -0.06573952 0.13746238
0002d0 d4 7b 3d be b8 d7 46 3e 25 19 5b bd 6c 4b a6 bd
       -0.18504268 0.19418228 -0.053490777 -0.08119854
0002e0 93 c9 93 be 32 4c 30 3e 9f ae c5 bc 65 0d fb bd
       -0.28864726 0.17216566 -0.024131117 -0.12258414
0002f0 27 97 12 3d 63 02 a6 3c 7e c9 2b be 78 81 00 3e
       0.03578868 0.02026481 -0.16776082 0.12549388
000300 cc 88 10 be 34 99 37 be 74 9f 8a be 65 ef 42 3d
       -0.14114684 -0.17929536 -0.27074778 0.047591586
000310 aa 0d 83 3d 21 67 17 3e 2b e1 27 be 30 8b b0 3c
       0.063990906 0.14785434 -0.16394489 0.021550745
000320 2f 0d 1c 3d 46 4d 92 3e 3d 5a 14 3e 35 a5 f7 bd
       0.03809851 0.2857458 0.14487548 -0.120920576
000330 d5 ed a6 be a4 e4 f0 3d 04 4b 25 be 78 50 9b bc
       -0.32603326 0.1176236 -0.16141897 -0.018959269
000340 db 72 1f be 0d c8 84 3e 8e 2d f4 bd ed bf 08 bc
       -0.15571158 0.25933877 -0.11922751 -0.00834654
000350 5c 53 2e 3d ba 20 86 3e 4a b5 95 be 96 e1 be 3d
       0.042559966 0.26196843 -0.29239875 0.09320371
000360 43 0e 27 bd 65 d4 58 3e 5b 2e 55 be 5b 0d f1 3d
       -0.040785085 0.21174772 -0.20818464 0.117701255
000370 7b 9a db bd de 79 bc 3d e9 39 fe 3b bc e5 33 3e
       -0.10722824 0.09202932 0.0077583683 0.17568105
000380 4c dc c3 bd 70 c2 a5 be b0 8d 3b 3e 0f 5b 3c 3d
       -0.09563503 -0.32374907 0.18315768 0.045985278
000390 4c a6 2d 3e e4 cb 58 bd 8a 67 54 3d db 93 a6 bd
       0.16957968 -0.05292882 0.051856555 -0.0813367
0003a0 02 79 fa 3d 7f 93 8e 3d bb da 09 3e 97 82 fc bd
       0.12230112 0.069617264 0.13462345 -0.123295955
0003b0 a5 23 86 bd 62 22 37 be 27 1a 27 bd 29 b7 dd 3c
       -0.065497674 -0.1788421 -0.040796425 0.027064877
0003c0 ca f9 1e be e7 1f df bc 72 22 2e bd b1 4d b1 bd
       -0.15524974 -0.027236892 -0.04251332 -0.086573966
0003d0 26 f4 34 be 49 d0 ad 3c 9a a0 1a bd bd f5 d2 bd
       -0.1767126 0.021217482 -0.037750818 -0.10300777
0003e0 a0 35 89 3d 29 23 02 be 9d 31 57 be a6 0b 0c be
       0.06699681 -0.12708725 -0.2101502 -0.13676319
0003f0 75 38 e9 3d 55 31 9b bc be e4 ab bd 0e 6e 39 be
       0.113877214 -0.018944422 -0.083932385 -0.18108389
